app/src/main/ml/feature_extractor1.tflite (tflite, 544608 bytes, 104 tensors)

sequential_1/model1/block_3_project/Conv2D f4 [16, 1, 1, 48]
000000 3c f6 47 3d 92 ac 3a 3f 55 6f a8 3e f9 ef 3b bf
       0.04881881 0.7291957 0.3289744 -0.73413044
000010 43 d6 03 bd 2d f0 94 3e 18 bd 0a bf 77 38 38 3f
       -0.032186758 0.2908949 -0.54194784 0.7196116
000020 2b bc c7 be 09 f7 6e 3e b3 0a 0e bf 39 98 fc 3e
       -0.39010748 0.23336424 -0.55485076 0.49334887
000030 fa c9 12 3e 81 79 8b 3f dc ea 28 3f 62 66 8e 3e
       0.1433486 1.0896455 0.65983367 0.27812487
000040 62 d2 cd 3e fb 4e 1f bf ab 95 a5 bf af 81 22 bf
       0.40199572 -0.6222989 -1.29363 -0.6347913
000050 3a 24 ad 3f e2 52 27 bf 5a a4 58 40 a1 be 38 bf
       1.352668 -0.65360844 3.3850312 -0.72165877
000060 06 9e 40 bf 9a 46 56 3d be e4 64 be 4e f4 8a bf
       -0.75241125 0.052313425 -0.22352883 -1.0855806
000070 98 77 60 3f e7 88 50 3d 9e a4 61 bf 8b a1 e0 3e
       0.87682486 0.05091181 -0.8814181 0.43873248
000080 9f 82 b0 be 57 f3 42 bd d6 78 43 40 97 02 1c bf
       -0.34474656 -0.04759535 3.0542502 -0.6094145
000090 52 c3 18 40 7f 3a a5 bd 3b 75 44 3f 50 c3 b8 3f
       2.3869214 -0.08067798 0.7674138 1.4434605
0000a0 1b 7a 79 be 86 87 98 bd ff 85 1d be bf ee 2c bf
       -0.24362986 -0.07447724 -0.15383147 -0.675518
0000b0 23 a8 5b 3e d8 98 7f 3f ac 61 79 bf 4d 04 47 bf
       0.21450858 0.99842596 -0.9741466 -0.7774094
0000c0 c8 82 2d be 27 ea 35 be 41 53 c7 bd e6 38 2b bf
       -0.1694442 -0.17765103 -0.09732676 -0.66883695
0000d0 d2 a6 fd 3e d3 8c ca 3e 8b 0e 2b 3e bc 34 71 3c
       0.49541336 0.39560565 0.16704766 0.0147220455
0000e0 33 fd 9c 3e f2 75 95 be 4f e7 c3 3e fe 3c 23 40
       0.30661926 -0.29191548 0.38262412 2.5505977
0000f0 9d fe 09 40 61 77 71 bf 50 98 8f be 91 57 d7 bd
       2.1561654 -0.9432278 -0.28045893 -0.10514749
000100 66 69 0f be 21 1d d3 be 6d 39 06 3f c3 40 18 3f
       -0.1400505 -0.4123316 0.52431375 0.5947382
000110 b1 69 73 3d 2a ee b9 bf d5 32 1d bf 7b 7e 53 be
       0.059426967 -1.4525807 -0.6140569 -0.20653717
000120 2e 05 6f be 85 4d 9c 3e 96 bc ed 3e 3a 35 ec 3e
       -0.2334182 0.30527893 0.46432942 0.4613436
000130 ab d0 8d bf d2 b9 e1 bd 0e 9a 6b 3e 0e 40 30 c0
       -1.1079305 -0.110217705 0.23007986 -2.7539096
000140 df c3 24 3f 72 5c 91 be f7 48 6e bd 4d 2e 8a be
       0.64361376 -0.28390843 -0.058175053 -0.2698845
000150 b4 40 78 bc a5 4a 3c 40 88 ad a1 be 50 4f 07 3e
       -0.015152145 2.942056 -0.31577706 0.13213849
000160 bc f0 6f 3e c0 f4 16 3f b3 02 7f bc 13 90 64 3f
       0.23431677 0.5896721 -0.015564608 0.8928234
000170 6b d8 cc 3e 93 a7 8a 3e dc 4a a4 be b1 aa 12 bf
       0.40008864 0.27080974 -0.32088363 -0.57291704
000180 a3 0f db be 81 dd c4 be 52 8a 4a 3f 2f 57 24 3f
       -0.42785367 -0.38450244 0.7911731 0.6419553
000190 7f 79 54 3f 61 15 fd 3e 90 30 21 40 04 2d 9f 3f
       0.8299789 0.49430373 2.518589 1.2435613
0001a0 bd 9b 22 c0 3f 4b c2 bf 7f 69 09 40 f8 51 15 3e
       -2.5407555 -1.5179213 2.147064 0.1458205
0001b0 1a 30 b7 3f 72 14 91 be 8a 4d b4 3f 7f 35 9d 3f
       1.4311554 -0.2833591 1.4086163 1.2281951
0001c0 e6 da 19 be 67 a7 04 bf af 3c 26 40 cc 63 6e 3f
       -0.1502491 -0.51817936 2.5974538 0.9312103
0001d0 11 c1 83 be c9 20 ab 3f 45 3e 65 3f 03 ef 3b be
       -0.25733235 1.336938 0.8954814 -0.18352894
0001e0 cb 7d b9 bd 71 f0 08 3f 5d d5 2c 3f 49 99 45 3f
       -0.09057196 0.53491884 0.67513067 0.7718702
0001f0 9c 44 f4 be a0 95 25 bf b9 f6 c8 bf 1e 46 ac 3e
       -0.47708595 -0.64681435 -1.5700294 0.33647245
000200 41 16 f5 bf 7e 02 89 bf 8e c1 b7 bd 92 5b 78 bf
       -1.9147416 -1.0703886 -0.089724645 -0.97014725
000210 2f 24 21 3f ae f3 06 bf 18 83 c8 38 40 f3 73 3f
       0.62945837 -0.52715576 9.561161e-05 0.95293045
000220 7d a5 87 bf 45 d1 52 bf 3c 38 d5 3f e8 bd f1 3f
       -1.0597378 -0.8235057 1.6657786 1.888608
000230 c7 7a 33 bf a8 ce 05 c0 e5 41 cc bf e7 ec 45 bf
       -0.7010922 -2.0907383 -1.595761 -0.7731461
000240 74 63 21 bf 4e 3c 09 40 88 15 0c 3f 62 1c da 3e
       -0.6304238 2.1443057 0.54720354 0.4259978
000250 21 c1 94 bf 1d 09 8b 3c d0 88 ae 3e dc 83 c6 be
       -1.1621438 0.016972119 0.34088755 -0.38772476
000260 69 67 1f 3f a1 dd 75 be b5 1a a1 3d 93 34 a9 3e
       0.62267166 -0.24010326 0.07866422 0.33047923
000270 19 cb a3 3e f5 2c f5 3e 01 cf 66 be 60 d5 e8 3d
       0.3199089 0.47885862 -0.22539903 0.11368823
000280 a6 a1 c5 3f 24 c0 b7 3f 17 22 0e bd a6 d7 f5 3e
       1.5439956 1.4355512 -0.03470048 0.4801609
000290 df 83 df bf 0f 18 82 be 9c c0 0c 3f 04 60 b1 bf
       -1.7462119 -0.2540898 0.549814 -1.3857427
0002a0 17 36 ff 3e 2c 52 34 be ee e9 89 3e 55 4c 54 3f
       0.49845955 -0.17609471 0.26936287 0.82928973
0002b0 52 67 d8 bf 5b 68 3e 3f 38 e3 0c 40 f1 75 02 3f
       -1.6906531 0.74377984 2.2013683 0.50961214
0002c0 65 8f a0 be 0a 20 c6 3e 99 ff f6 be f9 e2 e3 3f
       -0.313594 0.3869632 -0.4824188 1.7803642
0002d0 3a b6 7c bc a6 90 6f bf 4b d9 18 3f 9f fc ad bf
       -0.015424306 -0.9358009 0.5970656 -1.3592719
0002e0 15 b1 cb 3f 3b 0f 84 3f 7b 52 b5 3e 44 53 bc 3e
       1.5913416 1.0317148 0.3541449 0.36782277
0002f0 9e 6c 50 3f 35 88 59 be 37 51 d3 ba 77 74 bf 3f
       0.81415737 -0.21243365 -0.0016122226 1.4957417
000300 c5 41 50 3f ce c5 b5 3f 39 ae 29 bd 37 21 13 c0
       0.81350356 1.420099 -0.041425917 -2.2989023
000310 1f fe b4 3b 7d 00 20 3f af 03 65 3d 9c 0b 7e 3e
       0.0055234577 0.62500745 0.055911716 0.24809116
000320 aa 42 d1 bc 9c fb 67 be bd 75 01 3f 9c fe 9b be
       -0.025544483 -0.22654575 0.5057028 -0.3046769
000330 99 7b 0a 3e 91 a5 02 3f 8d 77 ce be 70 41 95 be
       0.13523711 0.51033884 -0.40325585 -0.29151487
000340 dc 6c 69 3e ad 19 5b 3f b3 16 8e be 87 06 a7 3d
       0.22795433 0.85586053 -0.27751693 0.08155542
000350 4d 99 1b 40 a3 fd c0 3e a8 02 b7 3e 20 d5 67 bf
       2.4312317 0.3769351 0.35744214 -0.9055958
000360 d6 3a 22 3f 06 29 17 3f d5 9c 91 3e c3 f2 45 c0
       0.63371027 0.5904697 0.28439966 -3.092942
000370 6c 1b 33 40 2a 40 57 bf 0f c3 06 be 97 ab 9f be
       2.7985487 -0.8408228 -0.13160346 -0.311856
000380 b3 7e b9 be 23 b0 cd 3e dc 70 ed bf a7 fa 39 3e
       -0.36229476 0.40173444 -1.8550067 0.18162023
000390 36 77 ee 3d 93 5b d4 3e 78 03 08 3f c3 a6 21 bf
       0.116438314 0.41476116 0.5313029 -0.63145083
0003a0 7d a4 82 3f c4 0f 7c 3f 46 69 93 3f b3 8a b0 3f
       1.0206448 0.98461556 1.1516502 1.3792328
0003b0 43 67 6c bf c3 5b dc 3c 90 8f 83 bf ed 2c aa be
       -0.92345065 0.026899224 -1.0278187 -0.332374
0003c0 b5 95 89 be e6 1f c2 bf 4b 2c ab 3c 8a c6 98 3e
       -0.2687203 -1.5165985 0.020895144 0.29838973
0003d0 9e d9 6b bf 89 db 3b be 76 bb 9f 3e f9 b4 11 be
       -0.9212893 -0.18345465 0.3119771 -0.14229192
0003e0 44 e3 b7 3e 5e 83 2d bf d3 83 09 3f 0d f4 86 bc
       0.35915577 -0.67778575 0.5371677 -0.016473794
0003f0 a1 0d 29 3e 86 ba 6c 3e 1c 06 88 3f 24 72 08 bf
       0.16509105 0.23118028 1.0626864 -0.53299165

sequential_1/model1/block_3_expand/Conv2D f4 [48, 1, 1, 8]
000000 35 e1 cc bb b7 38 ce bc 10 77 c6 bd 61 b1 d9 3d
       -0.0062524327 -0.025173528 -0.09690678 0.106295355
000010 c6 a9 2b 3c 6e 32 3a bd ab 67 00 bb 81 f5 cd bb
       0.010477489 -0.04545825 -0.001959304 -0.00628537
000020 3c c2 58 bc 42 8f 19 3e 67 86 17 bd 64 66 b1 bd
       -0.013229903 0.14996055 -0.03699341 -0.086621076
000030 00 62 00 3d 8c 1a 88 bd e3 96 38 3c 64 da 02 bb
       0.03134346 -0.066456884 0.011266443 -0.0019966597
000040 87 84 7f be 10 0b 02 3d 2e 3a 43 3c e0 e4 f7 bd
       -0.24952899 0.03174883 0.011915727 -0.12104201
000050 5c 17 a2 3d db cf d3 bc 65 cf a4 bb f5 2c a7 bc
       0.07914612 -0.02585595 -0.005029606 -0.02040718
000060 fd 6d 6c bb b5 30 35 3c bd b5 f9 bc a7 77 a0 bc
       -0.00360763 0.011058976 -0.030482167 -0.019588305
000070 84 d3 92 bc 46 7c 3a bd 9d 24 e3 3c 10 bb ce 3d
       -0.017923124 -0.045528673 0.02772742 0.10094273
000080 89 b4 06 3e cb c3 18 3c 58 5c 44 bd e2 c0 80 3c
       0.13154806 0.009324024 -0.04793963 0.015716974
000090 36 4d 23 bd fb 6b 02 bd b2 a3 66 3c 74 27 33 bb
       -0.039868556 -0.03184126 0.014077114 -0.0027336748
0000a0 f6 63 c0 3d e8 85 99 3d b6 27 c4 ba 6e a3 ce 3d
       0.09394066 0.07496244 -0.0014965448 0.100897655
0000b0 91 4c 3c 3e 40 25 04 3e 5a 06 fe bd 9f 40 89 3e
       0.18388583 0.12904835 -0.12403555 0.26807114
0000c0 1a bc 54 3c fc 11 5f bc 22 bb 44 bd 68 3e 50 bb
       0.0129843 -0.013615128 -0.048030026 -0.0031775478
0000d0 95 dd 43 bd 44 13 9b bc b1 74 91 bd 98 67 90 bd
       -0.04781874 -0.018930085 -0.07102335 -0.07051009
0000e0 da ce d9 bc a6 b1 ce bc f7 1f 5b bd 13 9b 16 bd
       -0.026587892 -0.025231194 -0.05349728 -0.036768984
0000f0 1e 97 d6 3d e6 db 13 bd 28 bf f8 bd 71 ae 9b 3d
       0.10478042 -0.036098383 -0.12145835 0.076016314
000100 2f a9 1d 3d a6 44 9c bc 3c 75 33 bd 5a 7e 20 3b
       0.038491424 -0.019075703 -0.043812975 0.0024489374
000110 f6 3a 54 bd d5 22 12 3d 8a 4c c5 3d de 12 b3 bd
       -0.051814042 0.03567775 0.09633739 -0.08743833
000120 0b b2 d1 3c 27 8d 73 3b 68 fd 6d 3a 33 d0 9e 3c
       0.025597593 0.003716299 0.0009078593 0.019386386
000130 d2 0e e9 bd fb 78 01 bc a8 6d 01 be f8 b8 bf bd
       -0.1137978 -0.007902379 -0.12639487 -0.09361452
000140 2e 09 f3 bc 07 d1 fc 3a fd 30 4b 3c 80 01 26 3c
       -0.029667463 0.0019288369 0.012401816 0.010132194
000150 23 d3 83 bd ba 26 c5 bb 6d f3 2b bb 7e 79 bf bb
       -0.064367555 -0.0060165795 -0.0026237622 -0.0058433404
000160 37 78 ca 3d 8f a6 cf 3a 24 0a f4 ba 59 26 dc bb
       0.098862104 0.0015842485 -0.0018618745 -0.0067184386
000170 f2 7f ab 3c 61 19 9c 3c 2b 15 08 bc e8 e8 93 3c
       0.020935033 0.01905507 -0.008305828 0.018055394
000180 a8 04 26 bd 8a e6 9a bb 22 ce 06 bb 8a 36 04 bc
       -0.040531784 -0.0047271894 -0.0020569642 -0.008069644
000190 81 d6 b3 bd 1b c4 d6 bb 38 54 4a 3b 45 64 8b bc
       -0.08781148 -0.0065541393 0.0030872952 -0.017015586
0001a0 a3 ab 24 3c 6e 67 57 bd 16 26 4b 3c 74 83 32 bc
       0.010050687 -0.052588873 0.012399217 -0.010895599
0001b0 69 47 9d bb 86 ad c0 bb 82 ad e3 3b 1d f0 28 bb
       -0.0047997725 -0.0058800606 0.006948174 -0.0025777884
0001c0 17 b3 57 3c 5b 5d 10 3d 33 f1 f4 bb 13 f0 a0 3b
       0.013165257 0.03524528 -0.0074750423 0.0049114316
0001d0 1c 83 2f bc 3d a2 cf 3c c2 0c ed 36 34 b5 b5 3b
       -0.010712411 0.025345916 7.0646356e-06 0.0055452827
0001e0 82 7c 41 3d a1 d3 c1 ba a8 89 1a 3c 42 62 af 3c
       0.04723788 -0.0014787802 0.009432234 0.021409158
0001f0 c9 31 06 be b0 03 79 3c d3 c6 21 3e aa b5 ec bd
       -0.13104929 0.015198633 0.15798502 -0.11558087
000200 f1 43 f6 bc 44 a2 e8 bd 03 83 81 3e 79 44 ca 3d
       -0.030061694 -0.11359075 0.25295267 0.098763414
000210 26 d7 af 3b ef cd 1f be 86 c6 ff bb 11 ec c3 bc
       0.005366224 -0.15605901 -0.0078056483 -0.023916276
000220 94 6f 2d 3a 0c f9 9b 3b ad b5 ce bc 7e 06 8c 3c
       0.00066160527 0.0047599133 -0.025233114 0.01709294
000230 21 05 ba 3d 94 39 e2 3a 7a 5e 1d 3c 65 7e c1 bc
       0.090830095 0.0017259591 0.0096050445 -0.02361984
000240 b9 11 78 bb e4 31 49 3b 87 fe 7c bc aa 27 4e 3b
       -0.003785236 0.0030699903 -0.015441543 0.0031456747
000250 ed 4a 46 3d 13 5e 8f 3b 1b 99 6f 3d 9b d8 f7 3c
       0.0484113 0.004375228 0.058495622 0.030254653
000260 2a c0 88 bb ee 3f 09 3d fc 64 a8 3c db f2 64 3d
       -0.0041732984 0.033508234 0.020555966 0.055895668
000270 02 65 d9 3c ad d1 a8 3d e0 b4 f9 bb f7 15 09 3d
       0.026537422 0.082431175 -0.007620439 0.033468213
000280 92 e2 ef 3b ae 15 d4 bc 79 8a 13 3c 14 d7 cc 3a
       0.0073207105 -0.025889244 0.009005182 0.0015628063
000290 1d 7f 3a bd 4e bb 39 3d b9 e8 c7 3b cf c0 f3 3c
       -0.04553138 0.045344643 0.0061007407 0.029755024
0002a0 66 6e 53 3d a3 72 1d 3b 50 35 ed bb 52 ac 88 bb
       0.051618956 0.0024024628 -0.0072390214 -0.004170933
0002b0 32 5b ac 3d 73 61 17 bc df a8 d1 37 fe ce 03 3c
       0.084158316 -0.009239542 2.4993378e-05 0.008044956
0002c0 0e 7d 17 3c 88 34 f7 bd 1a eb f2 3c 0b 7e 3d bd
       0.009246124 -0.120705664 0.02965312 -0.046262782
0002d0 0b e8 78 3b 64 67 45 bd 7d 51 4a bb 4a d5 8d bb
       0.0037980105 -0.048194304 -0.0030871325 -0.0043284046
0002e0 5e 41 0f 3c 8a 8c 82 3d d3 68 68 3c ca a4 0c bd
       0.008743612 0.06374462 0.014185148 -0.034336843
0002f0 ff e8 9e 3c d5 62 12 be af 92 00 3b 06 e8 b8 bd
       0.01939821 -0.14295514 0.001961868 -0.0902863
000300 5d f6 99 bd 17 a0 ca bd cd 78 b8 bd ef c0 a8 bc
       -0.07517693 -0.09893816 -0.09007416 -0.02059981
000310 32 2b 32 3d 79 74 8b bc 32 2a e8 3e a6 63 90 3e
       0.043498226 -0.017023312 0.45344692 0.28201026
000320 79 73 ff bb b3 58 de 3b 67 9e 8f bc 39 31 a5 bb
       -0.007795748 0.006785476 -0.017531587 -0.005041268
000330 6b 9f 03 3d d7 2d 44 bc 7a 10 c0 bb 54 5e 22 bc
       0.032134455 -0.01197382 -0.005861339 -0.009910185
000340 80 12 43 bd 7d ae a2 bc 7f 90 47 3c b7 0d 12 bd
       -0.047625065 -0.019858593 0.012180447 -0.03565761
000350 95 c2 35 3d b7 68 0c 3c 54 39 22 3b 70 33 13 3d
       0.04437502 0.008569888 0.0024753409 0.035937726
000360 5b e6 1a bd ab ba 13 bd e2 53 3f 39 78 47 89 3c
       -0.03781734 -0.036066692 0.00018246428 0.016757712
000370 d2 57 87 3d fd be 78 3d 64 57 e2 39 c1 e7 a1 3c
       0.06608547 0.060729016 0.0004317119 0.01976383
000380 ca 77 bb bc 28 bf 4b bd 01 c0 65 3c 87 fb 02 3d
       -0.022884268 -0.049742848 0.014022828 0.031978156
000390 db 7c c0 3d 54 53 a9 3d 96 fa e4 38 6f 38 40 3c
       0.09398814 0.08267847 0.000109185625 0.011732205
0003a0 93 f5 fc bb b2 2d 3e 3d 7e f6 b7 bb 8d 03 2b 3d
       -0.0077197044 0.046430297 -0.005614101 0.041751433
0003b0 c9 15 02 ba cf 71 1c 3d be f5 0c 3c 30 44 b6 bc
       -0.00049623527 0.038194474 0.008603511 -0.022249311
0003c0 06 be 3d bc a4 7c 07 bb b1 9e 07 3a 20 63 3e bb
       -0.01158095 -0.0020673657 0.0005173488 -0.0029050782
0003d0 7f 91 20 3d 90 b4 8e 3c 4f 9c 77 3b 6f c6 a9 3b
       0.039201256 0.017420083 0.0037782376 0.005181126
0003e0 71 e2 0a 3e 45 12 dc 3c e7 c7 50 3d 9e 5a aa bd
       0.13562943 0.02686418 0.05097189 -0.08318065
0003f0 e7 e3 c8 3c d3 24 15 3d 55 e8 70 3b 93 d7 55 3a
       0.024522735 0.03641207 0.0036759574 0.0008157428

sequential_1/model1/block_2_project/Conv2D f4 [8, 1, 1, 48]
000000 ae 76 c2 bd ab c2 9e be d3 07 1f 3e 4f ae 3c bb
       -0.094952926 -0.31007895 0.15530328 -0.002879042
000010 d0 f4 cb be 2c 74 7a be 10 f1 f3 3e e8 14 a9 be
       -0.39835215 -0.24458379 0.47644854 -0.33023763
000020 ce ca 41 3e cc ac 14 3f dd 66 23 3d a9 82 62 3e
       0.1892502 0.5807617 0.03989302 0.22120155
000030 c2 10 c0 3e 93 40 85 3e e3 d2 07 bf 8f a6 9c bf
       0.37512785 0.2602583 -0.5305616 -1.223833
000040 ac f0 31 bf 62 db d1 be a2 4e 13 3f 91 5d 3b bf
       -0.6950786 -0.40987688 0.5754186 -0.73189646
000050 c0 19 3c be 5b 71 c5 3e 2a f5 38 bf 84 86 25 bf
       -0.18369198 0.38563046 -0.7224909 -0.6465838
000060 df a3 62 bf 71 da fb 3e df dc fb bc d2 6e 60 bf
       -0.885313 0.49190095 -0.030744968 -0.876691
000070 09 94 97 3e f1 41 5f 3f a1 2c 02 3e 65 01 ae be
       0.2960513 0.87209994 0.12712337 -0.3398544
000080 54 e0 3d bd 8b 5f 1d 3e 81 6c 47 3c 8b e1 83 3e
       -0.046356514 0.15368478 0.012171865 0.25758013
000090 7a 08 33 bf 69 6f cf 3d bd 28 6d c0 1a ad 85 3f
       -0.6993481 0.10128672 -3.7056115 1.0443451
0000a0 9f 15 bc be 34 ad ac 3e bd 69 c9 be 86 c5 62 bf
       -0.36735246 0.33725893 -0.39338484 -0.88582647
0000b0 8f 63 94 3f b8 3e 45 3e a7 6b 5b 3f da bd 1b be
       1.1592883 0.19262207 0.8571114 -0.15209141
0000c0 63 55 4c bc 14 ad 75 bd b5 71 2f be 9e dc 91 3e
       -0.01247153 -0.059979513 -0.1713322 0.2848863
0000d0 b8 79 df 3f 62 5d bc bf 71 59 13 3f 70 db e1 3e
       1.7459021 -1.4715998 0.5755835 0.4411273
0000e0 84 b1 b7 bf c9 3b 13 bf ba 05 ed 3e cd 88 33 bf
       -1.4351048 -0.575131 0.46293432 -0.70130616
0000f0 e5 2c df 3f 81 34 38 bf 9d 76 b3 3e fb db 4a 3f
       1.7435576 -0.71955115 0.35051432 0.79241914
000100 7e f4 0f bf ad 83 46 3f f2 11 dc bc ea 3a 5c bf
       -0.5623244 0.7754467 -0.026864026 -0.86027396
000110 7d 1a af 3f 1d f1 6a 3e 1c 1a 95 3e f5 cf de bf
       1.3679959 0.2294354 0.29121482 -1.7407213
000120 13 75 27 bc 2d 48 b9 3f 85 df 71 bd 16 40 dc 3d
       -0.010220784 1.4475151 -0.059051055 0.10754411
000130 32 c4 ab 3e d5 45 65 3d 7b 6c b4 3e c2 77 7b bf
       0.33548123 0.0559748 0.35239014 -0.9822961
000140 c2 ff 60 3d 0a 38 63 bf 51 fe 0c bf c5 a2 1c 40
       0.05493141 -0.88757384 -0.55075556 2.4474347
000150 86 76 08 c0 a5 ff 1e 3f da ab 6d be 5a 3e 90 3e
       -2.132234 0.6210883 -0.23210087 0.2817257
000160 92 79 97 3e bf c5 9c 3f dd e8 05 3e 0b 9b 73 3f
       0.29584938 1.2247847 0.13077112 0.9515845
000170 3f 39 12 be a5 fb 03 be 6f 57 96 3e de 55 d2 3a
       -0.1427965 -0.12888964 0.29363582 0.0016047319
000180 a9 7a 81 3d e8 22 be 3e 12 a1 30 bf 95 48 19 bf
       0.06322224 0.37136006 -0.68995774 -0.59876376
000190 bf 70 f5 be ea 53 71 bf 41 fc 51 3f 2f ad 50 3e
       -0.4793758 -0.9426867 0.82025534 0.20378564
0001a0 44 b6 94 bf e1 e4 26 be 13 1e 86 3f f9 e1 78 bf
       -1.1618123 -0.16298248 1.0477928 -0.97219807
0001b0 11 b1 7f 3e aa a0 45 bf c4 0a 66 bf 42 e8 84 bf
       0.24969889 -0.7719828 -0.8986018 -1.038338
0001c0 d9 3c 56 bf 29 ec 52 bf 11 db 68 3d 17 2b eb 3f
       -0.83686596 -0.823916 0.056849543 1.8372525
0001d0 dc 10 e6 bf ab 6d 0c 3f 2a 23 49 bf e7 13 a0 3f
       -1.7973895 0.5485484 -0.7856928 1.2506074
0001e0 dc db 71 3f d4 cd c3 bf c4 b3 fa 3e 0b ac 00 3e
       0.94476104 -1.5297189 0.48965275 0.12565629
0001f0 b4 64 e8 3d 00 1e 0b bf 16 5e a1 bf e4 e6 c9 be
       0.113473326 -0.5434265 -1.2606838 -0.39433968
000200 6c 82 91 bf 6f 95 e6 3f e6 93 b0 bf c8 1d fe be
       -1.1367927 1.8014354 -1.3795135 -0.49632096
000210 d1 95 d3 bc 73 4e 0d 3e 83 c7 34 3d 17 aa 9d 3e
       -0.025828274 0.13799457 0.04413558 0.3079383
000220 68 22 67 bf cd 8b 66 bf 6c 77 a2 bf a1 9a 50 3f
       -0.90286875 -0.9005707 -1.2692695 0.81485945
000230 df 3c 7f 3e 28 7b c1 3e e1 d1 8c bf 90 0c e5 3e
       0.24925564 0.37789273 -1.100155 0.44736147
000240 a7 cd ed be 96 37 8e 3e c2 d2 1a bf a5 51 b5 be
       -0.46445963 0.27776784 -0.6047784 -0.35413852
000250 fd 3e c1 be e7 d0 c3 bf 7d 44 8a 3e a6 5c e8 ba
       -0.3774337 -1.5298127 0.27005377 -0.0017727807
000260 18 d7 82 bf 29 01 8b bf 68 a9 2f 3e 0e 86 9c bd
       -1.0221891 -1.0859729 0.17154467 -0.076427564
000270 5e 78 15 3f d9 87 06 bf a2 9b 79 be e7 a1 6e bf
       0.5838679 -0.5255104 -0.24375775 -0.93215793
000280 d6 ae 9e bf 39 90 65 bf 9b ae ae 3d 53 a7 91 3f
       -1.2397106 -0.8967319 0.08529397 1.1379188
000290 2a 4a 3e bf d2 d2 ba bd a2 45 cc bd af 5b 4e be
       -0.74331915 -0.09122242 -0.09974219 -0.20152162
0002a0 14 5f c4 be 82 9b d1 be f9 9d 13 3e 4c 33 56 3e
       -0.3835379 -0.40938956 0.1441573 0.20918006
0002b0 c7 10 10 bf 2f f2 db be 2a 41 a3 bf b9 7a e0 bd
       -0.562756 -0.4295821 -1.2754261 -0.109609075
0002c0 85 33 99 bf 3c db 3f 3f ec 7d 21 40 23 9c 9e bf
       -1.1968848 0.749439 2.5233107 -1.2391399
0002d0 c4 b3 ee 3d 8f ab a7 3e e5 f0 48 bf 2f 1d 37 3e
       0.11655381 0.32748076 -0.78492576 0.17882226
0002e0 8b d7 38 bf 1a b8 1c bf 2f 4f 95 bf 03 d2 5a be
       -0.7220389 -0.61218417 -1.166479 -0.21369176
0002f0 5d 12 69 3e 3f 7e dd be 06 3a c9 be 88 4e 95 3e
       0.22760911 -0.4326038 -0.3930208 0.29161477
000300 fe 21 c8 3e e5 d5 a9 be a5 f3 fd 3e 38 ef ce be
       0.39088434 -0.33171 0.4959995 -0.40416884
000310 01 7b 57 3f 6d d0 b8 3e bb ae 72 3e db 70 a7 3e
       0.84172064 0.36096516 0.23699467 0.3270329
000320 33 38 db bd ae 3b 0f be ef 78 ea 3c 54 14 a1 be
       -0.107040785 -0.1398761 0.028622119 -0.31460822
000330 d2 2e 18 be d8 56 45 bd 90 94 d2 3f 57 5c b1 3f
       -0.1486161 -0.048178524 1.6451588 1.3856305
000340 ba 85 45 3d ba 79 60 be c5 7f 84 bf 99 14 9e bf
       0.048223235 -0.21921435 -1.0351492 -1.2350036
000350 47 37 85 3f 50 60 2d bf e8 81 30 3f af b3 f2 3d
       1.0407494 -0.67725086 0.6894822 0.11850678
000360 89 5e c5 3d 0f fb 17 3e 09 de 24 bf 9f bf 48 3f
       0.09637172 0.14841865 -0.644013 0.7841739
000370 b4 64 21 c0 16 e9 98 bf 3c 4b db bd d1 4e cb 3f
       -2.5217714 -1.1946132 -0.10707709 1.5883428
000380 27 d1 04 bf 30 da a1 bf b8 b0 9e 3e 6e 22 88 3d
       -0.5188164 -1.264471 0.309942 0.06647192
000390 0c f5 a6 bf 65 01 03 3f 13 27 b1 be 83 89 b5 bf
       -1.3043532 0.51174 -0.34600124 -1.418259
0003a0 55 9f 77 3d 04 f3 4f bf e9 56 f0 bd a1 aa 45 3e
       0.060454685 -0.8123019 -0.11735327 0.19303371
0003b0 97 b0 29 c0 a8 f4 19 3f 13 39 33 bf 39 fe 0e 40
       -2.6514032 0.6013894 -0.70008963 2.2342665
0003c0 6e 41 ad be d3 e4 6c 3f f8 08 30 3f 2c c0 eb be
       -0.3383898 0.9253666 0.68763685 -0.46045053
0003d0 ff a1 0b be 0a 52 ba bf a5 0f b4 3e 2e 59 55 bd
       -0.13636015 -1.4556286 0.35168186 -0.052087
0003e0 7a 3f dd bf f9 c7 05 c0 f2 82 bf bf ec c3 be 3f
       -1.7284997 -2.0903304 -1.4961836 1.4903541
0003f0 40 fa fe be de 43 95 3f b7 ed 1a 3f b0 f5 98 be
       -0.498003 1.1661336 0.60518974 -0.29874945

sequential_1/model1/block_2_expand/Conv2D f4 [48, 1, 1, 8]
000000 79 eb a4 bc fa 9c 96 3d 0e ce 9e 3c 18 16 dc 3d
       -0.020131813 0.0735416 0.019385364 0.107464015
000010 60 dc f2 bc 7e ab d8 3d 37 d2 04 3c a2 7a ed 3c
       -0.029646099 0.105795845 0.00810676 0.02898914
000020 10 b8 64 3a 34 53 87 3d 2a bc 57 bd 0d 6f 6a bc
       0.0008724937 0.066076666 -0.05266968 -0.014308703
000030 dd 1d ee 3b b6 e1 8e be 85 93 80 3c 4b df d0 3c
       0.0072667436 -0.2790658 0.015695343 0.0254971
000040 79 d8 8a bb 69 b8 5f 3c 00 e7 55 bb 06 50 4e 3b
       -0.0042372313 0.013654807 -0.0032638907 0.0031480803
000050 c5 3c 8a bc 6e 64 15 bc ee 1e 52 3c 53 9f 54 3d
       -0.01687468 -0.009118183 0.012824757 0.051909756
000060 19 68 22 3d 15 0a cb 3c 8c b5 22 3c a2 9b a7 bb
       0.039650057 0.02478508 0.009930979 -0.0051149884
000070 63 80 9c bd 14 26 3e bd a3 48 9d 3d 7b f4 01 3e
       -0.07641675 -0.046423033 0.0767987 0.12690918
000080 b8 5c c7 3b c1 e2 6b bc 91 dc 30 bd 88 12 0b 3d
       0.006084051 -0.014397324 -0.0431791 0.03395322
000090 e7 43 c5 3c 1d 17 84 bc c3 f5 b6 be 5c 5b 81 3e
       0.02408023 -0.016124303 -0.35734376 0.25265014
0000a0 c3 1f a3 bb 1b 50 50 3d 55 ac 47 3c a9 9c b1 3d
       -0.0049781515 0.050857645 0.012187083 0.08672459
0000b0 52 6e ae bb 17 9d 4e 3d f1 c9 0d 3c 06 c4 1e 3d
       -0.00532321 0.05044278 0.008654104 0.03876116
0000c0 30 6d 2d bd aa cd 12 bd 94 3e cb bb fe 78 0b bc
       -0.042340457 -0.035840668 -0.0062025283 -0.0085127335
0000d0 5c 80 f9 3c 34 84 08 bd 38 3f d7 bc 35 6f 2f bd
       0.030456714 -0.033329204 -0.026275262 -0.042830665
0000e0 0b 20 44 3c ed e6 c9 bc 3b 34 6a 3d 38 15 ac 3c
       0.01197053 -0.024646247 0.057178717 0.021006212
0000f0 d5 6b 8a bc d9 e7 83 3d c7 19 c1 bc 53 24 93 bd
       -0.016897121 0.06440706 -0.023571862 -0.07184663
000100 6b 45 f6 bc 58 9c 8c 3d e5 f2 c2 3c a3 4f 93 3d
       -0.030062398 0.06865758 0.023797462 0.07192924
000110 2e 4b 90 bc 25 02 57 3c e5 a5 b2 3c 23 84 ac 3c
       -0.017613973 0.01312307 0.02180762 0.021059101
000120 0f 1c 33 3c 12 0d be bc 26 a5 f7 bd 97 35 5e be
       0.010931983 -0.023199592 -0.120920464 -0.2170013
000130 7e 7f ee bc e2 26 8b be 18 c2 cb bc 17 c8 96 bd
       -0.029113527 -0.27178103 -0.024872825 -0.07362383
000140 46 80 73 3d 9f bb 3a be 64 5b 06 bf 8d 95 62 be
       0.059448503 -0.18235634 -0.524832 -0.22127362
000150 b9 36 bd bc 27 c3 86 3e 40 fd bb 3b b2 bb b2 3c
       -0.023097383 0.26320764 0.005736977 0.021818016
000160 0a af 1e 3d 6a a5 00 3e 7e c8 78 3e db f3 9b 3c
       0.03874115 0.125631 0.24295232 0.019037178
000170 3d f3 41 bc 5b bf 9d be 97 f3 49 bc ee 4d d0 bd
       -0.011837778 -0.30810055 -0.012326143 -0.10171114
000180 10 2b 41 3d f2 a6 18 be 62 96 82 bd bc 93 0b be
       0.04716021 -0.14907435 -0.063763395 -0.13630575
000190 ce 6e 2f bd 2d 34 0a be f9 35 50 be 02 c5 59 be
       -0.04283028 -0.13496466 -0.20333089 -0.21266559
0001a0 13 3e 6b 3a 06 51 87 3d 26 81 ec 3b 67 11 2f 3d
       0.00089737884 0.06607251 0.007217544 0.042741206
0001b0 9d 2d b0 bd ca 72 9b 3d 69 82 01 3f 8e 36 e5 be
       -0.0860245 0.07590254 0.50589615 -0.44768184
0001c0 41 ae 02 3d a3 cd 20 3e d9 5e 95 bd ef a1 d3 3c
       0.031904463 0.15703444 -0.072934814 0.025834052
0001d0 05 f8 f3 bc 0f ec 5a 3c 71 ce 76 3e a6 ba 39 be
       -0.02978135 0.013361945 0.24102189 -0.18137607
0001e0 8c f4 99 3b 91 af b6 bd 75 f9 64 3d 62 fc 50 3d
       0.0046983417 -0.089202054 0.055901963 0.05102194
0001f0 33 26 22 bd bc 9f a7 3d 46 e8 ca 3d a5 6b 54 bd
       -0.03958721 0.08184764 0.09907584 -0.05186047
000200 5e d8 09 3d 2d 6a f0 3c 61 bf c6 3b b0 3b 0c bb
       0.03365361 0.029347504 0.0060652946 -0.0021397881
000210 a9 e8 ab 3d b2 f1 9b bb a2 ff b2 bd 4b 45 55 3c
       0.08393986 -0.004759037 -0.08740164 0.013017009
000220 a4 8b 7e bb b3 e8 ae bd d7 13 99 3d dc ed 8c 3b
       -0.0038840557 -0.085404776 0.07474487 0.004300816
000230 00 2c 26 bd f6 7d 79 3b 97 c8 03 3c 09 61 e6 3b
       -0.040569305 0.0038069463 0.00804343 0.0070306105
000240 81 90 03 3d c2 ba 83 3b a1 98 11 bc 03 41 ab bb
       0.03212023 0.004020066 -0.008886487 -0.005226256
000250 76 83 c8 bc 02 47 53 bc f9 69 3d 3d af 17 0b 3d
       -0.024476748 -0.012895348 0.04624364 0.033958133
000260 53 11 ee bc 94 29 85 3d 40 9b ad 3b f6 08 96 3d
       -0.029060995 0.06502071 0.0052980483 0.07325928
000270 a7 29 02 bc 31 7d b9 3d 9e aa 95 3c 47 fd 2a 3d
       -0.007944501 0.090570815 0.018269833 0.04174545
000280 23 ad e7 3a d5 00 4c 3c 70 3f 80 bb 4f 8d 27 bc
       0.00176755 0.01245137 -0.0039138123 -0.010226562
000290 cb 36 d1 3c 5a f0 9f bc 59 36 13 bd 11 73 c2 bc
       0.025538823 -0.019523788 -0.0359405 -0.023736509
0002a0 e7 e9 55 3c f7 46 d7 bb ac 84 91 3c a6 ba 87 b9
       0.013056255 -0.006569739 0.017763458 -0.0002588827
0002b0 79 55 dc bc 4c ef a8 3c 2b 59 9a 3d 53 78 bd bc
       -0.026896225 0.020621918 0.07536539 -0.023128664
0002c0 5d 88 04 3d 33 b1 ad 3d 3e 25 4c bd 33 f2 ba bd
       0.03235661 0.08481064 -0.049840204 -0.09128227
0002d0 e6 db 25 3d 71 19 87 bd 8a 9a 16 3e bc 51 1c bd
       0.040492915 -0.065966494 0.1470739 -0.038163885
0002e0 20 16 0d 3d 68 7b 83 3e 21 44 64 be 27 26 aa bd
       0.03444493 0.2568009 -0.22291614 -0.08308058
0002f0 65 ae 3a bd d3 c3 a3 3d 06 53 f5 bc 63 62 b9 bc
       -0.04557647 0.07996335 -0.029946815 -0.022629922
000300 35 89 a6 3d ae c4 37 bc f5 6d 28 3c 61 65 25 bd
       0.08131639 -0.011216326 0.010280122 -0.040379886
000310 5f 3e 86 3d 49 65 5d 3c 98 71 04 bd 5e 33 c9 3c
       0.06554865 0.013512918 -0.032334894 0.024560627
000320 1d 77 20 3b 50 5f 4b be 98 76 d3 bb 0f 34 c6 bd
       0.002448506 -0.19860578 -0.0064533465 -0.09677898
000330 6c 4d 86 3c c5 00 ca bc d7 eb ad bc 69 10 16 bd
       0.01639434 -0.02465857 -0.021230621 -0.036636744
000340 c6 ac 46 3c 91 c2 5f 3c fe 4a 01 3d 33 4f 55 bd
       0.012126153 0.013657228 0.03156566 -0.052077483
000350 bf e7 45 be 78 4d 46 3d 8f 34 8e 3d ac 9c 1f be
       -0.19326685 0.048413724 0.069436185 -0.1558711
000360 7a f4 c2 bc b6 4e e6 ba 9c 70 fc 3b da 9a 6f 3c
       -0.023798216 -0.0017571065 0.007703854 0.014624322
000370 dd ec 84 bd a0 e1 d9 3c 5b b8 2e be 67 5a 02 3d
       -0.064904906 0.026596844 -0.17062514 0.031824496
000380 13 27 be 3a 34 ca 41 3c 63 ac 93 bc 54 eb d0 3c
       0.0014507495 0.011827994 -0.018026536 0.025502838
000390 b8 19 d7 3d 1c 90 6d bb d8 6f f8 bd 0d 92 92 3d
       0.10502952 -0.0036249226 -0.121307075 0.07156763
0003a0 1f 1d ef 3c d2 53 a8 3b ca f0 32 3c 66 c6 89 bc
       0.02918869 0.0051369453 0.010921666 -0.016818237
0003b0 91 26 17 be d9 dc 80 bb c3 56 38 bd 96 26 d3 bc
       -0.14760806 -0.003932577 -0.045004617 -0.025775235
0003c0 2f 3e 2c be 5b 6a 2d bb d4 c6 99 bb 89 ad d9 bc
       -0.16820596 -0.0026461098 -0.0046928916 -0.026572006
0003d0 38 d1 e0 3d 61 0d b8 3d 88 8e 00 bc 60 af 34 3c
       0.10977405 0.08986927 -0.007846482 0.011028141
0003e0 1d 87 93 bc 4b 02 fa bd 43 58 ae bd 06 17 1e be
       -0.018008763 -0.122074686 -0.08512928 -0.1543847
0003f0 98 98 1f be 54 72 2a bd 4e d2 c4 bd 3c 9d ec bd
       -0.15585554 -0.041612938 -0.09610425 -0.115534276

sequential_1/model1/block_1_project/Conv2D f4 [8, 1, 1, 48]
000000 31 6f f1 be 4c c7 85 be 8c 0e 9f 3f ca 2b aa bd
       -0.47155145 -0.26128614 1.2426314 -0.08309133
000010 9e 3a 3f 3f a5 97 1e bf 12 0e 3a be d6 14 68 40
       0.7469882 -0.6195014 -0.1816943 3.6262717
000020 0b cc 4a 3e 44 0b 86 be 97 96 9a 3f 36 fa 68 be
       0.19804399 -0.2618047 1.2077206 -0.22751698
000030 0f 63 86 be 4e 43 39 bf e2 c3 92 3d 45 95 5f 40
       -0.2624745 -0.72368324 0.07166268 3.4934857
000040 d7 f4 e6 bd 0e 19 28 be 83 e0 88 3e 52 eb 99 be
       -0.11277168 -0.16415808 0.2673379 -0.30062348
000050 bd 90 12 3f 83 00 39 3e 04 59 4d c0 66 b4 68 bd
       0.57252103 0.18066601 -3.208558 -0.056812666
000060 5a 6e 08 be 52 0b 05 3d 18 dd 8c 3e ca eb 40 c0
       -0.13323346 0.0324815 0.2751243 -3.0143914
000070 0e 6f 66 bd 2b e7 ce be a4 ba 97 bf 1d 36 1e 3e
       -0.056258254 -0.40410742 -1.1853833 0.1545033
000080 39 90 9f be 9f b2 47 be 46 96 35 3e 56 9d 5c 3e
       -0.3116472 -0.19501732 0.17733106 0.21544394
000090 04 43 27 3e 0f 2c 6a 3e 85 ee 77 3c 29 21 9c bf
       0.16334158 0.2286837 0.015132551 -1.219762
0000a0 4a 1d da 3e 40 53 0a bd 05 b3 70 be 48 c2 d5 be
       0.4260047 -0.0337708 -0.2350579 -0.41749787
0000b0 e1 02 23 3d 77 8b 48 3e 69 02 ab 3d d2 91 09 3f
       0.039797667 0.19584452 0.08350069 0.5373813
0000c0 c1 24 42 3f 95 f1 c2 3e e3 e1 1d be be f7 93 c0
       0.7583733 0.38074937 -0.154182 -4.623992
0000d0 cc f0 8d 3f 4e b4 db bf de 5e e4 3f 48 fd b5 bd
       1.108911 -1.71644 1.7841451 -0.088862
0000e0 fd f0 2c 40 8d 87 a6 3d cf 29 59 3e 98 3b 0c bf
       2.7022088 0.08131323 0.21207355 -0.5477843
0000f0 75 f4 b5 bf cb dc 29 40 7a 28 10 3f f0 40 1e be
       -1.4215227 2.6541011 0.5631176 -0.15454459
000100 a7 c7 85 3f 90 b9 89 3f e0 9c a8 bf 39 fd e2 bf
       1.0451554 1.0759754 -1.3172874 -1.7733527
000110 54 0e 0a 3f 83 c4 7a c0 c9 38 0e bf c2 28 ff 3f
       0.53928113 -3.9182441 -0.555554 1.9934313
000120 48 ad be 3e 47 1b 89 bf dd 2f 8a bf 19 8b 45 3e
       0.37241578 -1.0711449 -1.0795857 0.19291343
000130 4a ff 2e bf 4a 85 d5 bf 93 9f 65 3e 81 10 19 3e
       -0.6835829 -1.6681302 0.22424154 0.14947702
000140 c2 46 4b be e3 5c c6 3f 2e 44 5c 3f 4a c6 08 40
       -0.1985121 1.5497097 0.86041534 2.1371026
000150 da b9 41 c0 91 e6 bf 3f 04 11 6b bf e9 8e 45 3d
       -3.0269685 1.4992238 -0.9182284 0.048231993
000160 6c 48 9d bf b0 12 95 bf 82 6c 05 3f 5b 88 3c be
       -1.2287726 -1.1646328 0.52118695 -0.1841139
000170 e5 60 9a 3f 46 62 de 3e 34 b0 3e 40 b9 87 d2 3e
       1.206082 0.43434352 2.9795046 0.41119173
000180 01 05 7e 3f 4c 80 de 3f 87 8a 80 3f 27 9f 1b 40
       0.99226385 1.7382903 1.0042275 2.431589
000190 c2 4d ca 3f df 00 70 be f8 d6 69 be 15 3e 34 be
       1.580498 -0.23437832 -0.2283591 -0.17601807
0001a0 3b 47 1a 3f 83 68 b9 bf 4b 7d 68 bd 82 94 53 bf
       0.6026494 -1.448502 -0.056760114 -0.8264848
0001b0 70 ff 51 3f 08 45 b1 bf b2 94 b2 bf 3e 17 1a be
       0.8203039 -1.3849192 -1.3951628 -0.15047929
0001c0 64 98 a2 bf 34 fb 06 40 82 d0 e1 bf e6 e6 4f 3f
       -1.2702756 2.1090822 -1.7641757 0.812117
0001d0 da 23 3a 40 e1 f3 84 bf f9 23 17 bf 8b 9c aa bf
       2.9084382 -1.0386926 -0.59039265 -1.3329023
0001e0 7b e7 75 40 f3 b6 6f bc 55 02 88 bf a4 ce cc be
       3.8422534 -0.014631021 -1.0625712 -0.40001404
0001f0 99 8e 1e 40 23 bb 10 40 91 0c fc 3f ed 21 0e bf
       2.4774535 2.261422 1.9691335 -0.55520517
000200 1a c9 8e 3e aa 79 04 3f 88 ad 09 bf c7 b2 83 bf
       0.27887803 0.51748145 -0.5378041 -1.0288934
000210 d6 66 dc 3b 93 d2 48 40 e4 07 73 bf bd b0 50 be
       0.006726126 3.1378524 -0.94933915 -0.2037992
000220 f9 a9 16 3e ab c4 49 40 c0 1f 26 bf cf e3 aa 3f
       0.14713277 3.1526287 -0.64892197 1.3350772
000230 ea 44 ec 3f 38 9c a5 3f 06 86 92 bf 7f bc 1c 3f
       1.8458531 1.2938299 -1.1447151 0.6122512
000240 fa 0a 4b 3f 72 20 a2 3f e9 71 57 bf 43 52 f8 3e
       0.79313624 1.2666152 -0.8415819 0.4850026
000250 2f d8 1d c0 2c 51 32 bf 3c 9d 76 3e cf b1 37 3d
       -2.4663198 -0.6965511 0.24083418 0.044847306
000260 6b 6c 86 3e 38 87 63 3f ec 58 a8 3e d4 52 83 be
       0.2625459 0.888782 0.32880342 -0.2564913
000270 d1 59 38 3e 9f 93 12 3e 75 89 07 bf c6 6c 5e be
       0.18003012 0.14314125 -0.5294412 -0.21721181
000280 3d f0 ef be 46 8d c3 3f 3c de 38 40 67 fa 57 be
       -0.46862975 1.5277488 2.888564 -0.21091615
000290 0d ab 82 3f e5 38 67 bf f5 49 84 3f bd 95 7d be
       1.020845 -0.9032119 1.033507 -0.24764152
0002a0 60 db c6 3f aa 5b 06 3f e0 8f 1e 3d 20 65 62 be
       1.5535698 0.5248362 0.03871143 -0.22108889
0002b0 17 61 7b 3f b8 38 ed 3e 4d 19 1c c0 f1 b6 8d 3f
       0.9819502 0.46332335 -2.4390442 1.1071454
0002c0 7a e6 e1 bd 7f 0b 3a 40 40 9f a7 3f 69 e1 90 3f
       -0.11030288 2.9069517 1.3095474 1.131879
0002d0 e2 21 18 bf 4e b2 f9 3f 01 74 4d 3e 87 94 83 3f
       -0.594267 1.9507539 0.20063783 1.0279702
0002e0 c1 b0 be bf f6 ff 73 3f 6d eb f9 bd 4e 0e 55 3f
       -1.4897691 0.9531244 -0.12203107 0.8322495
0002f0 8d 0c db 3f ba 74 2b 3f 38 be 27 bf 70 29 c8 be
       1.7113205 0.66974986 -0.65524626 -0.39094114
000300 eb 10 88 3f 2f 7d b5 be 22 9a 1e 3f f1 a0 13 3f
       1.0630163 -0.3544707 0.6195394 0.5766745
000310 10 33 b4 3e 35 7a 1a 40 dd be 85 3e 5e 49 73 3f
       0.35195208 2.413709 0.2612218 0.95033824
000320 85 69 e0 3d e4 03 6c 3d 62 87 1c c0 06 bb 9a 3f
       0.10957626 0.057620898 -2.445763 1.2088325
000330 ac 08 d1 be 65 8c a6 3f cc 5c 25 be ae 4c b3 bf
       -0.4082693 1.3011595 -0.1614868 -1.4007776
000340 2d ea 35 be e2 fc 0a be 83 e2 a6 bf 5d 4f 44 3e
       -0.17765112 -0.1357303 -1.3037876 0.191709
000350 96 76 62 3d 47 20 9f 3e a8 a7 22 bf f9 8a 80 bd
       0.055288874 0.31079313 -0.63537073 -0.06276507
000360 89 9c 23 be c3 8e 8e bf a9 1d 3d bf 55 91 70 bf
       -0.15977682 -1.1137317 -0.7387338 -0.9397176
000370 c7 93 c9 bd 31 34 5b be 0e 36 9a be 3b ed 25 bd
       -0.098426394 -0.21406628 -0.30119365 -0.040509444
000380 96 8e da 3e 42 0a ae bd f1 4d e5 bd 3d 6e 92 bf
       0.4268691 -0.0849805 -0.11196507 -1.1439892
000390 f1 17 3f bf 40 55 29 be e6 a3 f7 be 3a 35 9d 40
       -0.74645907 -0.16536427 -0.48367232 4.9127474
0003a0 8f 97 d7 bf 24 71 a1 be e9 e5 19 bf 9b ff 58 3f
       -1.6843127 -0.31531632 -0.6011644 0.84765023
0003b0 ee 4c 52 be 42 7f 3e be 6d 88 d6 be ed 65 4f 40
       -0.20537159 -0.18603233 -0.4190096 3.240596
0003c0 4d 46 28 bf 87 ca 4f bf 82 dc 91 3f 4a 33 e0 3e
       -0.6573227 -0.8116841 1.1395419 0.4378913
0003d0 b8 f8 b3 3f ca cc cb bf 91 48 41 bf f6 02 99 bd
       1.4060278 -1.5921872 -0.7550135 -0.07471268
0003e0 e0 12 eb bf 1c 1c 59 40 ea 86 7d 3c ab 4f 8c 3f
       -1.8365135 3.3923407 0.015474061 1.0961813
0003f0 46 14 81 be b6 6b f3 3e 4a 44 f1 be 5d 82 90 3e
       -0.2521078 0.47543114 -0.47122413 0.2822446

sequential_1/model1/block_1_expand/Conv2D f4 [48, 1, 1, 8]
000000 91 c2 13 3f 91 93 93 be 38 ea 9e bf d7 9c b6 bf
       0.5771876 -0.28823522 -1.2415228 -1.4266614
000010 dd 76 dc 3d ad 37 a0 be 40 0d 9b be 2a 3e 8c 3e
       0.10764859 -0.31292477 -0.30283546 0.27391177
000020 69 28 0a 3d 24 ef cf bc 72 2a 42 bb 37 51 52 bc
       0.033729944 -0.025382586 -0.002962735 -0.012836746
000030 c6 c3 ef bc e2 f0 1d be 61 fd 91 3d ff b8 62 3c
       -0.029268157 -0.15423921 0.07128406 0.013838052
000040 7c 04 b0 bd aa 84 45 3c 4a 11 1d 3d d0 11 82 bd
       -0.08594605 0.012055555 0.038346566 -0.06351054
000050 53 32 70 bc c3 b3 65 3b f4 57 d7 bb 0d 9c 05 bd
       -0.014660436 0.0035049773 -0.006571764 -0.032619525
000060 7c 36 d9 bb 96 f4 31 bc 1a 8d 68 bc 8c f4 c1 bc
       -0.0066288095 -0.0108615365 -0.0141937975 -0.02367618
000070 8c f9 6f bc 65 84 96 3d b8 eb 8a 3d cf f5 94 bb
       -0.014646899 0.07349471 0.06783241 -0.004545904
000080 7c b3 02 3d 18 f1 af bb 97 eb 8a 3d db b2 6d bd
       0.03190945 -0.005369317 0.067832164 -0.058031898
000090 6d f3 b4 bb da f7 8c bb 01 64 52 bb e0 c2 c0 3b
       -0.0055221827 -0.004302007 -0.0032103064 0.005882606
0000a0 39 e9 3b 3e 73 96 c6 3f 1f 65 4a 3d 5e 75 f3 bb
       0.18350686 1.5514663 0.049412843 -0.0074297627
0000b0 1b 2d d5 3c 49 b8 8a 3e 4c 6d 9d 3d 86 47 22 be
       0.026022485 0.27093723 0.07686862 -0.15847597
0000c0 b1 8c 36 bc f1 8c 2d 3c 67 2e af bc 6a 90 1d bd
       -0.011141942 0.010592685 -0.021384431 -0.038467802
0000d0 0f cc 8c 3c 77 b5 4f bb a6 14 72 3b cf f0 4f be
       0.017187146 -0.0031693855 0.0036938577 -0.20306705
0000e0 32 90 01 be 70 99 fe 3b 26 fc 35 3c 80 f7 f6 bc
       -0.12652662 0.007769756 0.01110748 -0.030147314
0000f0 d1 6c b2 b9 e3 95 a0 ba f5 de 7f bc be 2c ca b9
       -0.0003403188 -0.0012251701 -0.015617122 -0.00038561778
000100 8c 69 67 3c fe c5 7e be ff d0 4d bc cf f2 11 be
       0.014124285 -0.24880216 -0.012562036 -0.1425278
000110 f3 2d 91 3d 8b d7 b2 3e b7 43 d9 3e d9 4f 01 bd
       0.07088842 0.3493007 0.42434475 -0.03157029
000120 82 c3 01 bd b9 ad ce bd df cc 1a 3c 23 20 9c 3c
       -0.03168059 -0.10091729 0.009448259 0.019058293
000130 46 99 cc 3b 85 a5 9d bd b6 8b 8d 3d 76 30 eb 3b
       0.0062438576 -0.07697586 0.06911413 0.007177408
000140 43 cb ed 3b a7 42 ff bb 7a c6 30 bd 3b a7 8c bd
       0.0072568967 -0.007789928 -0.043158032 -0.06867834
000150 ee 58 ff 3b 14 f3 b0 3b 7a 5f 9f 3b 8e 1d 62 3c
       0.0077925837 0.005400071 0.0048636766 0.013800992
000160 c6 45 44 3e cb e6 a0 3d 29 7f f5 be a5 c8 17 bf
       0.19167241 0.0785652 -0.47948578 -0.59290534
000170 f9 14 6f be bf 6f 89 bd 12 99 a8 be 57 94 90 3d
       -0.23347844 -0.06710767 -0.32929283 0.070595436
000180 6d 7a 0a 3e af e0 0b bd 72 89 04 3d 28 f9 92 3d
       0.13523264 -0.03414982 0.03235764 0.07176429
000190 60 5c d4 bd 59 9d ad bc 5b b5 df 3c 98 3b c9 3c
       -0.10369182 -0.021193193 0.027308157 0.02456455
0001a0 05 62 47 3e 08 d3 26 3e 9c d5 8f 3e f3 9f 8a 3e
       0.19470985 0.1629144 0.2809266 0.27075157
0001b0 e3 8c 96 bf 92 d5 fc be a3 c5 66 be b7 31 32 be
       -1.1761745 -0.4938169 -0.2253633 -0.17401777
0001c0 5a 3f 86 bc 07 41 44 bc 81 15 8f 3d c1 c3 96 3d
       -0.01638763 -0.011978394 0.069865234 0.07361556
0001d0 a4 ab 37 3d ee 9e 9e 3c 70 1d 19 3d 4f 0a 0b 3c
       0.044841424 0.019362893 0.03738159 0.0084863445
0001e0 a2 d0 d4 be 12 93 cd 3d 36 52 18 3e 04 cc 85 be
       -0.41565424 0.10037817 0.14875111 -0.26132214
0001f0 42 73 4b 3d b0 c8 c5 bd 49 b5 16 3e 51 f5 9f bf
       0.049670465 -0.09657419 0.14717592 -1.249674
000200 d4 e4 f1 3c f2 5b fc 3c 8a d6 f4 bd 43 b1 1a be
       0.029528059 0.030805562 -0.119549826 -0.15106682
000210 78 57 71 bd f7 2c 2c bd 44 8f 8b bd 82 e1 e7 3c
       -0.058921307 -0.04203507 -0.06814435 0.028305773
000220 a8 ce 8a 3d 25 24 73 bd 13 6a 99 3c ac 6f ba bc
       0.06777698 -0.059360642 0.018727338 -0.022758327
000230 b3 3e e5 bb 8e 5d b9 3d 3c d9 13 be e5 a9 c0 bb
       -0.0069959997 0.09051047 -0.14438337 -0.005879628
000240 b3 11 41 bd 44 fb ab bb e4 d9 f5 bd f5 97 5c 3d
       -0.04713602 -0.005248459 -0.1200445 0.053855855
000250 94 88 22 bb a1 73 35 bc 4a 60 9c bb e5 49 c0 bc
       -0.0024800645 -0.011074931 -0.0047722207 -0.023472736
000260 04 4f 20 3d ff 7f 39 3d 8d 17 21 bd 1b cc ac 3a
       0.039137855 0.045288082 -0.0393291 0.0013183387
000270 d0 c7 13 bd c1 f9 b7 bd d2 19 00 be 02 11 f4 bd
       -0.036079228 -0.08983184 -0.1250985 -0.119173065
000280 13 24 ca 3b e2 1c 80 3c b2 2a 68 bc a9 46 b6 bc
       0.006168851 0.015638772 -0.014170336 -0.02225049
000290 03 2b d1 3d e7 c9 73 bd 96 0b 88 bd b4 50 9c 3c
       0.10213282 -0.05951872 -0.06642835 0.019081451
0002a0 5b 42 9d 3c 49 38 e2 3b 0d d2 77 bc eb 1c 0b bc
       0.01919668 0.0069036824 -0.015125764 -0.008490781
0002b0 36 36 22 3e 8d 47 70 bd 55 83 97 bd 08 8a 67 bc
       0.15840992 -0.058661986 -0.073980965 -0.01413203
0002c0 55 7b a2 bf ae 39 6b 3e ba 0b 60 3f 6d 09 ad bf
       -1.2693888 0.22971222 0.87517893 -1.3518502
0002d0 3f a6 25 be 66 c1 07 3e 58 a1 d1 3d 34 fe 55 be
       -0.16176699 0.1325737 0.10235852 -0.20897752
0002e0 c0 fa 1a bd 2d 9f 9d be 06 bb 45 be 4e 2c da be
       -0.03783679 -0.30785504 -0.19309625 -0.42611927
0002f0 1d b2 3f 3f 10 64 06 3f 8f 18 40 3f 50 74 a4 3e
       0.74881154 0.52496433 0.75037473 0.3211999
000300 e7 e1 dd bc 1c 3a e5 bb 8b 6e 76 3c e5 03 2d 3c
       -0.027085258 -0.0069954526 0.015041004 0.010560011
000310 72 8d b7 bd 55 d5 91 3d 24 2f 89 3d d8 41 30 3b
       -0.089625254 0.07120768 0.066984445 0.0026894715
000320 fa 81 91 bc c6 ef ce 3c 8b 41 a5 3d 29 7e 8c 3b
       -0.017762173 0.025260817 0.08069142 0.0042875004
000330 ba 3c 86 3c de 9a 8e bc 6a 87 d9 3b 12 5b 42 3e
       0.016386379 -0.01740783 0.006638457 0.18980053
000340 17 fe 5d 3d 52 04 ad 3d 3a be cd bb 30 c2 2f bc
       0.054197397 0.0844809 -0.0062787803 -0.01072745
000350 d3 5a e2 3b 87 ea 8a 3a 6f 5a 16 3c fe 16 eb bd
       0.0069077997 0.0010598459 0.0091768345 -0.11478995
000360 5b a8 19 3e 5c 16 90 bc ad b6 b5 3b c6 01 ef 3c
       0.15005629 -0.017588787 0.0055454583 0.02917565
000370 28 2a 7f bb ea 63 a2 bc f6 0a e3 3b f8 91 8e ba
       -0.003893504 -0.019823033 0.006928797 -0.0010877242
000380 b0 91 43 bd bc 69 45 bb 6f db 37 3c 26 90 9e 3c
       -0.04774636 -0.0030122837 0.011221751 0.019355845
000390 40 02 6f be 86 0b 95 be 01 dd 8b be 5b 54 2f bc
       -0.23340702 -0.29110354 -0.2731705 -0.010701264
0003a0 5e 53 f5 3c d6 13 6c 3b 06 9f f1 bc cc c0 0e bd
       0.02994698 0.0036022565 -0.029494774 -0.034851834
0003b0 bb 7c 54 3c 3a a7 fe bc a6 7e ca bc 7a b6 2c bd
       0.012969191 -0.0310856 -0.024718594 -0.04216621
0003c0 44 9c b2 3f ba cd 9b be 31 18 77 3f 85 f0 15 bf
       1.3953938 -0.30430394 0.9652129 -0.5857013
0003d0 e9 bb 4c 3d 9f 41 72 3d b1 73 d4 3d e6 71 19 bf
       0.049983893 0.059144612 0.10373629 -0.5993942
0003e0 8e 3e a5 bc 92 15 53 3d 8c 0d 7e bd f8 1d ba 3c
       -0.02017143 0.051534243 -0.062024638 0.022719368
0003f0 e1 6f fb 3b 41 11 4b be 62 61 6e 3e 02 44 88 3b
       0.007673249 -0.198308 0.23279336 0.004158498

sequential_1/model1/expanded_conv_project/Conv2D f4 [8, 1, 1, 16]
000000 13 52 88 bf 8e 98 4e be b0 5f 59 bf 6b 09 89 21
       -1.0650047 -0.20175382 -0.8491163 9.285974e-19
000010 a9 81 5a bd 10 13 97 3d ab 35 00 c1 45 3e fa 1c
       -0.05334631 0.07376683 -8.013103 1.6559709e-21
000020 60 9a 8c 3f 88 4c 2d 40 b2 49 23 3f a6 db 20 3d
       1.0984612 2.707796 0.63784325 0.039271973
000030 03 c9 0f bd 43 ac ed 9b 4a 75 48 bf 80 ca 3c 3f
       -0.03510381 -3.9319683e-22 -0.7830397 0.7374649
000040 f2 ac e4 bf 33 0d 8d bf 2e 80 eb c0 ef 7b 60 21
       -1.7865279 -1.1019653 -7.359397 7.6058177e-19
000050 c9 3c 99 3e eb 78 6f be 98 dd 8d 3f 98 30 e2 1a
       0.29929188 -0.2338597 1.108325 9.3549917e-23
000060 bf fc 6c bf 17 f0 24 3f b3 1c 74 3e fc a1 c0 3d
       -0.9257316 0.6442885 0.23839073 0.09405896
000070 f6 70 af bf 8b 2b b7 1c e2 6d 04 3f bd 5f 87 be
       -1.3706348 1.212118e-21 0.5173017 -0.2644023
000080 e2 be 77 3f 0c b8 e6 3d 27 a1 0f 3f ee dd c6 21
       0.9677564 0.11265573 0.56105274 1.3475746e-18
000090 53 37 4f 40 f4 58 9f 3e 83 75 e1 3f 82 21 9d 9d
       3.2377517 0.31122553 1.7613987 -4.15922e-21
0000a0 8d b2 fe bc 5e c5 12 40 44 f7 e6 40 f9 d7 da bd
       -0.031090999 2.2932963 7.217684 -0.10685725
0000b0 21 f6 31 3e 70 af 4b 9d 79 f1 d8 40 98 b5 1d be
       0.17379047 -2.6957525e-21 6.7794766 -0.15401304
0000c0 58 b7 9f bf 96 63 9e 3f c6 3b 1c 3f a5 e5 4a 20
       -1.2477827 1.2374141 0.6102871 1.7186049e-19
0000d0 d1 78 50 40 c4 d1 aa be db fe 0f c0 6a 47 33 1d
       3.257374 -0.33363163 -2.2499301 2.3727373e-21
0000e0 d0 df 50 bf 88 82 b8 3f 85 8c 9b c0 6b a2 bf be
       -0.8159151 1.4414835 -4.8609033 -0.37428603
0000f0 be b9 c4 be 26 2d 08 1e e7 16 cb 40 25 3e e5 be
       -0.3842296 7.2091165e-21 6.3465457 -0.44773975
000100 21 40 0b c0 d2 3e 8d 3f 57 36 48 bf bc 94 76 a1
       -2.175789 1.1034796 -0.78207916 -8.354489e-19
000110 5d e9 39 c1 01 d6 b2 3e 7d 58 7e bd d3 2e 0a 1d
       -11.619473 0.34928897 -0.062096108 1.8288355e-21
000120 da 6c 8e be 7e 8e 9e bf ef 89 0f be 20 58 9e 3e
       -0.27817422 -1.2387235 -0.14017461 0.3092661
000130 3b 40 15 3f f6 92 03 1c ab be 9b 40 f8 c6 70 be
       0.5830113 4.3534207e-22 4.867025 -0.235134
000140 91 e9 32 41 b7 bb 06 40 79 c3 8d c0 51 21 9f 9f
       11.182023 2.1052072 -4.4301114 -6.7394237e-20
000150 54 0a 80 3f e6 c1 64 be 58 75 9a be a9 eb 07 9e
       1.0003152 -0.22339591 -0.3016765 -7.195574e-21
000160 91 db 1c c0 2a f9 47 3f 28 1d 1b 3f 9d 8a 2a bf
       -2.4509013 0.7811457 0.60591364 -0.6661776
000170 48 d1 23 41 b1 28 56 9d 02 8c 93 3e 09 07 9b 3d
       10.238594 -2.8343701e-21 0.28817755 0.07569701
000180 f8 0b 57 41 b9 7b 80 3f 0e b1 43 3f c7 68 71 21
       13.440422 1.0037757 0.7644204 8.179265e-19
000190 45 94 ee 3f ae 23 43 bf b8 e6 62 3f 11 47 d1 1b
       1.8638998 -0.7622632 0.886333 3.4622075e-22
0001a0 ce 32 1b 40 aa 2b f6 3f 74 b4 c9 be d9 a4 d5 3e
       2.4249759 1.9232075 -0.39395487 0.4172733
0001b0 db 3b 21 c1 ba 6a 61 1d 88 9f 11 3f 81 5d ca be
       -10.077113 2.9833678e-21 0.5688405 -0.39524463
0001c0 cb 56 7f 3f 3f 36 9b 3f e9 00 e1 3f 6b 70 f8 a1
       0.9974181 1.212593 1.7578403 -1.683489e-18
0001d0 45 14 85 bf de 12 9b bd 71 f3 1a be 21 b3 73 1d
       -1.0396811 -0.07571958 -0.15131928 3.225339e-21
0001e0 37 27 ab c0 f7 6d 79 be a4 da d0 3d 2b dc 94 bd
       -5.348537 -0.24358355 0.101979524 -0.07268556
0001f0 16 24 f2 be e1 c6 7d 9d 8f 97 a6 be 16 37 2e c0
       -0.47293156 -3.358709e-21 -0.32537505 -2.7221122
